checkpoint.pth (torch_old, 690078 bytes, 11 tensors)

module.fc1.weight f4 [256, 33]
00000000: e70c 12bf 91fd 70be 066d bd3e 7d44 f33d
00000010: f66b 66be 63af 14be e5a8 063e 4ad8 f73d
00000020: 3bc3 f13d c6b6 7a3e 268b b2bd cdba 5c3d
00000030: a788 c33d f7d8 dd3e 06eb eb3e 8814 1ebe
00000040: 100a 51be 2d34 94bd edb6 0ebe a464 103d
00000050: 53d8 07be 4d45 a43d df75 873c 3974 7abd
00000060: 74fe 2bbd ee13 513e 856f e2be e645 95bd
00000070: 3630 2c3e b002 683c 9b73 7c3d f21a 673d
00000080: ef9f 363e cdfe 283e 0145 6ebd 616a 633d
00000090: cbaf 773e 5e42 f8bc 7efa 2cbe 4357 10be
000000a0: a825 42be 0e38 1e3e 5cf5 8c3e 9f30 8b3e
000000b0: dd95 963d 4448 b2bd 6c43 c0bd c7eb 18bd
000000c0: 9292 c2be a86c 04be 7e00 7bbe b360 91bd
000000d0: 7217 af3d 7d8e a53c a208 23be 7625 0a3e
000000e0: 6e9e 483d 3e45 8cbe ecb8 673e a2e1 d83e
000000f0: 4dc9 bf3e 5b8b 403d 1cbd 45bd 9fc9 d6be
00000100: 763d 5bbd a05b 903e 2e4a 4f3d 4fd2 dd3e
00000110: 61c9 063d dd6b 98bd 705d 123e bf52 8c3d
00000120: d280 1dbd 22b9 84b9 79cb a2bd 9339 213e
00000130: 3c40 253e 72a2 233e 2439 663d 7702 13bf
00000140: 66d2 f8be d9a6 3b3c 35ae fa3d f63d 053d
00000150: e221 1f3e f195 ee3c e536 bebc c7e3 b9bd
00000160: 6445 17be f27a 8ebe cf13 3ebd 3adb 3e3d
00000170: 025e 153e f614 af3e f802 f7bc 7041 40bd
00000180: ab31 8cbe fc89 79bd 057d ac3d 0095 b83e
00000190: 4bf9 673e 27cd 41be dc95 50be 4e18 c93d
000001a0: 1c75 b3be 546e b73d 9642 ef3d 9cb5 a0bd
000001b0: 02c2 6bbe 9473 9ebd 28e6 1f3e 784f 37be
000001c0: 4ecc aabb 0562 f73e bbb6 41bc 56a3 34be
000001d0: c014 da3d 917e 5b3e ee9a b8bd ff52 80be
000001e0: c016 fd3e 52ec 0c3e 67b2 cdbd 6ad6 013e
000001f0: 4bf4 253e ba7d 92be a94d a23e 92bf 9a3c
00000200: fc4a 3fbd 2d9f 99be c681 1e3d 1281 3cbf
00000210: 5053 e4bc 11e0 c5bb df43 5abe 29af aabd
00000220: 04a0 09be 66f5 89bd fc57 c8bc 31ea f7bd
00000230: 2618 34bc fc5a 0d3e e0ff 78bc 4be3 8e3d
00000240: ac3b a23e d751 c73d e391 e43e 68fa cb3e
00000250: a01f 16be 44db 403e 1f7f 793b ed2d d33d
00000260: 1ddd 20bd b099 35be 8f8c d93c 2e81 65be
00000270: 2e65 5b3e ecdd 373c 3885 ddbc e3e9 aa3e
00000280: 6553 8ebd 2aa5 203d d52c a0be c098 afba
00000290: 7656 86be e966 1abf 0846 f63d ef3d feba
000002a0: fae7 c0bd 872f 87be 8011 c23c 2f4d 823e
000002b0: 6390 743d 26ff 1f3e 5e20 68be 0ad8 d9bd
000002c0: 8304 16bd a201 423e 0d57 25be 2e7b 9bbd
000002d0: 80a7 563d 89a1 2e3d 3c9f 1a3c d449 58be
000002e0: 8db9 f53d d9e5 8fbe 4277 d33d 9b46 30be
000002f0: d839 563e 44f6 b7bd e03c e5bc 6e12 ca3e
00000300: 2e16 0f3f bf08 923d 9213 1f3d 327f 0fbf
00000310: a8a1 3dbd d3f7 4cbd 5bba 5bbe c671 bb3c
00000320: 9de5 77be 7f60 18bd 02b2 c0be 7ac0 49bc
00000330: a015 733d 353a 74bc b84f be3d 6283 543d
00000340: 4672 4bbd 8ad4 37bd b9aa 17be 3676 fc3e
00000350: 1c8a d13e 6dc1 833e cc69 513e 34b7 9c3d
00000360: abab 08be 1038 163e 9e06 32bd c1fd 59bd
00000370: 4e27 f8bd ef6f 1cbd 18d8 ca3c f874 35be
00000380: 846d ddbe 8a03 b4bd 37ce 98be dccb d0bc
00000390: f077 bd3c 807c 56bc cb5a 39be 3eaa 6abe
000003a0: 286c d5bd 5440 b23e 6e9f 973d c041 633d
000003b0: 0c19 133e 3cbd a43d dba1 48bd 19b1 c5be
000003c0: 8ad7 b93e d555 38bc 5056 7c3d 60ce f83c
000003d0: 1158 7e3e d126 fd3e d1be 1e3f 9308 b43c
000003e0: 2d85 04be f5b3 89bd fec4 e6bd 41f2 a6bd
000003f0: b49a d33e 08ef 883d e59b b5bc 8157 1c3e
-0.5705094 -0.23534228 0.3699724 0.118782975 -0.22502121 -0.1452003 0.13150366 0.12101801
0.118048154 0.24483785 -0.08717947 0.053889085 0.09547549 0.43329594 0.46077746 -0.1543752
-0.20413995 -0.07236514 -0.13936968 0.03525223 -0.13266115 0.080210306 0.016535698 -0.061145995
-0.041990712 0.20417759 -0.44225708 -0.07288723 0.16815266 0.014160797 0.061633687 0.05642218
0.17834447 0.16503449 -0.058171276 0.055521373 0.24188153 -0.030305084 -0.1689243 -0.14095788
-0.18959677 0.1545107 0.27530944 0.27185532 0.07352803 -0.0870519 -0.0938786 -0.03733423
-0.3800245 -0.12932074 -0.24511907 -0.07098522 0.08549394 0.020209545 -0.15921262 0.13490853
0.048979215 -0.27396578 0.22629136 0.42359644 0.37458268 0.0470079 -0.048276052 -0.419507
-0.05352541 0.28194904 0.050607853 0.43324515 0.032906894 -0.07442448 0.14293456 0.0685172
-0.03845293 -0.00025314937 -0.079489656 0.15744619 0.16137785 0.15979937 0.056206837 -0.57425636
-0.4859802 0.011453354 0.122402586 0.032529794 0.15540269 0.029124232 -0.023219535 -0.09076648
-0.14772564 -0.27828175 -0.04640561 0.04659579 0.14586642 0.3419568 -0.030152783 -0.046937406
-0.27381644 -0.060922608 0.08422283 0.36051178 0.22653691 -0.18925916 -0.20369667 0.09819089
-0.35050285 0.0895659 0.11682622 -0.07847139 -0.23023227 -0.077368885 0.15615141 -0.17901409
-0.0052123433 0.4831697 -0.0118233515 -0.17640433 0.10648489 0.21435 -0.090139255 -0.2506332
0.4943142 0.13762024 -0.10043793 0.12679449 0.16206472 -0.28611547 0.31699875 0.018890176
-0.04670237 -0.30004254 0.03869798 -0.73634446 -0.027871758 -0.0060386737 -0.21314953 -0.083341904
-0.13439947 -0.06736259 -0.024456017 -0.12105215 -0.010992086 0.13804239 -0.015197724 0.069769464
0.3168615 0.097324066 0.44642553 0.39839482 -0.14660501 0.18833643 0.0038070155 0.10311494
-0.03927337 -0.17734408 0.026556281 -0.2241256 0.21425316 0.011222344 -0.027041063 0.33381566
-0.069495 0.039220013 -0.31284204 -0.0013396963 -0.2623784 -0.6031328 0.12025076 -0.001939712
-0.09419246 -0.26403448 0.023689985 0.2544951 0.05970801 0.15624675 -0.22668597 -0.10636909
-0.036625396 0.18945935 -0.16146488 -0.07591854 0.052405834 0.04263452 0.0094373785 -0.21121913
0.11998282 -0.28105047 0.10325481 -0.17214434 0.20920503 -0.08982518 -0.027983129 0.39467186
0.5589322 0.071305744 0.038837023 -0.5605346 -0.046296746 -0.05004103 -0.21457808 0.0228814
-0.24208684 -0.0372014 -0.3763581 -0.012313956 0.059346795 -0.014906456 0.09292549 0.05188311
-0.049669527 -0.044880427 -0.1481122 0.49308938 0.40925682 0.2573351 0.20450515 0.07652131
-0.13346736 0.14669824 -0.043463342 -0.053220514 -0.12116872 -0.038192686 0.024761245 -0.17720401
-0.43247616 -0.087897375 -0.2984483 -0.025487833 0.02312848 -0.013091207 -0.18101041 -0.22916505
-0.1042102 0.34814703 0.07403456 0.055482626 0.14365023 0.08043906 -0.048982482 -0.38611677
0.36297256 -0.011250933 0.06160575 0.030371845 0.24838282 0.49443677 0.6200991 0.021976745
-0.12941428 -0.06723777 -0.11268042 -0.08151675 0.41328967 0.066862166 -0.022169063 0.15267755

module.fc1.bias f4 [256]
00000000: b813 583e 2587 63be e09b bebe 7017 5cbe
00000010: 5d6e a9be 749d 34bf 787c 02be 4281 5c3c
00000020: c176 d0be 7136 72be b554 94be 9552 bcbe
00000030: a586 583e 0b5f bfbe ac5c c6bd 223d d2be
00000040: 7fd0 71be 9192 c0be 27d8 adbd 4257 04bf
00000050: 0dba 61be 0c2e a0be f67e 22bf 40b0 90be
00000060: 557b c6be 8d5a 52be 493c 41be 5a89 c8be
00000070: d18c 0ebe fdf4 a4be 7692 f3be ac6a 80be
00000080: 63d3 f5be 1a23 d7be 6d81 87be 23c1 cabe
00000090: c0a7 b5be 4014 12be c7df 1cbf 655e e13c
000000a0: 18ea 44be 09f9 12bf f210 1c3e bf87 e6be
000000b0: 93f6 8abe 43ef 01bf f3ec a0be c671 ba3e
000000c0: a3ce bebe 90ce b4be 1702 0fbf 9c49 7cbd
000000d0: 3e1b 08bf 284d 75be 14dd 11bf 319b 1bbe
000000e0: 2be4 cfbe 27f1 b2be 678f 12bf 50b9 06bf
000000f0: c062 bd3c df7a 93be 1347 b5be f568 84bd
00000100: 2f68 a6be 282e ebbe b531 d6be 1e02 e4be
00000110: 5405 cebe 3e6e adbe ea89 f2be 59d2 00bd
00000120: 2738 a7be 0acb 35be be81 22be 2dc8 e4bd
00000130: de86 a63d be3e 66be 7fc2 44be 3db7 70be
00000140: 2638 0fbe 2cbf 8a3e 609a adbe 7e31 91be
00000150: 35a3 f9be d7da 2dbf 02dd 7dbe abb4 cfbe
00000160: a677 58be 12f5 dfbe c09d bfbe 5bdf bbbe
00000170: f6a4 143e 184b 05bf ded8 a5bd f9d3 6dbe
00000180: 890a 0ebe 3134 dcbe 908e 4cbe 7cab 14be
00000190: 0f9d 00bf 5c93 a7be dccc 2dbc 697d 43be
000001a0: de58 dbbe 3688 85be a9b5 f7be 2e03 b6bc
000001b0: 2c86 c6be 0c10 f9be a94f e3be 8749 63be
000001c0: 2e2e 3abe e07b 21be 36be f1be 3f36 16bf
000001d0: 5f30 d4be 379c d7be dbdf ab3c d054 e6be
000001e0: 8c8e 63bd 84a1 20bd 7b4c c2be 1e95 b2be
000001f0: bb48 193d 0510 cd3d f66c 9a3c b9d1 a1be
00000200: bbd8 c9be ccd7 bd3d 48b3 5abf 97db efbe
00000210: 002a 84be 38c6 1e3e 369e 21be fff6 c0be
00000220: a35b f9be 1662 f5be 330c e3be ae9d edbd
00000230: 1105 5bbe d3e1 b7be ecd6 e7be 2d23 c8be
00000240: cef9 62be a478 5c3b b0c9 10be 4f0d 94be
00000250: 4b31 f8be 70c3 4fbe 5d5b e4be 7ad9 06bf
00000260: 9c0a 89be 961e 29be a5b1 afbe 61ef afbe
00000270: d820 cebe 9f06 3ebf 5c82 0cbf f6f6 5abe
00000280: f165 cd3e b045 bcbe 9006 423d 4cc0 04bf
00000290: e8c7 dfbe 8101 02bf 40fc f6be f0b6 84be
000002a0: c8c5 e5be c17a 97be 1799 a4be cc78 693d
000002b0: 1266 8fbe cf0c 75be 348f 82be 843a b5be
000002c0: a65a 04bf 34aa f9be 3261 afbe 6377 943e
000002d0: 4260 f1be 04de 35be 730f d2be b62b 143e
000002e0: 3c08 02bf 7a63 9abc e639 d9be d57f 22be
000002f0: 02cd c0be 3957 95bc 5cd9 ccbe d551 61be
00000300: c5a8 7dbe 02e8 2d3d f238 f4be a037 84be
00000310: e374 40be e7b1 07be 5893 f7be fb13 4dbd
00000320: 24b5 8cbe 2ebc 92be fddb 35be 23d4 0dbf
00000330: 637d 28be 94dc 1bbf 9afc 60bd f62e c7be
00000340: c889 b5be b5b9 c4be 44e8 ad3d 531c a8be
00000350: ec40 9cbe a162 09bf cb6b 61be 1d66 c0be
00000360: 1ca3 b8bd 5ece 75be 55de c43c 08a6 8e3d
00000370: 3d4f 543e 4612 ffbe f498 a7be ef70 f6be
00000380: 4fa6 b5be 6499 aabe ab76 27bf c2f2 29be
00000390: 05a3 ffbe 593b e7be 1c6b 1fbe c7ad 5cbe
000003a0: e1dc f7be c5f9 3bbf 4bfc c9be b3d7 f6be
000003b0: 015e ffbe 8608 7dbe c257 0dbf 3cea b4be
000003c0: 52b9 76bc 640d 4dbe e694 f7be cc9f 4abe
000003d0: 478b 0fbe 7e03 183e 69fa 96be 6de9 c7be
000003e0: dab6 04bf a118 12bf 78ff 35be d141 e0be
000003f0: a1bc a3bd 290b 92be aec2 89be 17ab 0bbe
0.21101272 -0.22219522 -0.37228298 -0.21493316 -0.33092013 -0.70552754 -0.12742794 0.013458552
-0.40715602 -0.2365358 -0.28970876 -0.36781755 0.21145113 -0.373772 -0.096856445 -0.41062266
-0.23614691 -0.3761182 -0.084884934 -0.51695645 -0.22043629 -0.3128513 -0.63474977 -0.28259468
-0.3876597 -0.20542355 -0.18870653 -0.3916729 -0.13920905 -0.3221816 -0.47572678 -0.25081384
-0.48012838 -0.42018968 -0.26465932 -0.39600477 -0.35479546 -0.14265537 -0.6127896 0.027510831
-0.19229925 -0.5741125 0.15240839 -0.4502544 -0.27141246 -0.5075571 -0.31430778 0.36414927
-0.37267026 -0.35313845 -0.55862564 -0.061593637 -0.5316657 -0.23955214 -0.56977963 -0.1519592
-0.40603766 -0.3494961 -0.57250065 -0.52626514 0.023118377 -0.2880468 -0.35405788 -0.064653315
-0.3250136 -0.45933652 -0.41834798 -0.44532865 -0.4023844 -0.3387317 -0.47370845 -0.031450603
-0.32660028 -0.17753235 -0.15869805 -0.11170993 0.081311926 -0.22484872 -0.1921482 -0.235074
-0.13986263 0.27098978 -0.3390684 -0.28358072 -0.4875733 -0.6791205 -0.24791339 -0.40567526
-0.21139392 -0.4374166 -0.3742504 -0.36693844 0.14516053 -0.5206771 -0.08098005 -0.23225392
-0.13871206 -0.4300857 -0.19976258 -0.14518541 -0.5023965 -0.32729614 -0.010607924 -0.19090809
-0.42841238 -0.26080483 -0.48380783 -0.022218313 -0.3877424 -0.48645055 -0.44396713 -0.22196017
-0.18181679 -0.15769911 -0.47215432 -0.5867652 -0.41443154 -0.4211137 0.020980766 -0.44986582
-0.055555865 -0.039216533 -0.37948975 -0.34879392 0.037422877 0.10012821 0.018850785 -0.31605318
-0.39423165 0.092696756 -0.8542981 -0.4684722 -0.25813293 0.15505302 -0.15783009 -0.37688443
-0.48702726 -0.47926396 -0.44345245 -0.11602341 -0.21388651 -0.35914478 -0.4528116 -0.39089337
-0.22165605 0.0033641243 -0.14139438 -0.28916404 -0.48475108 -0.20289397 -0.44600955 -0.5267559
-0.26765907 -0.16515574 -0.3431522 -0.3436232 -0.40259433 -0.74228853 -0.5488641 -0.2138327
0.40116838 -0.36771917 0.04736954 -0.5185592 -0.43707204 -0.50783545 -0.48239326 -0.2592082
-0.44877458 -0.2958584 -0.32148048 0.056999967 -0.2800756 -0.23930667 -0.2549988 -0.35396206
-0.5170082 -0.48762667 -0.34253842 0.28997335 -0.4714375 -0.17760473 -0.41027412 0.144698
-0.50793815 -0.018846262 -0.42426986 -0.15869077 -0.3765641 -0.018230068 -0.40009582 -0.22003873
-0.24771412 0.042457588 -0.47699696 -0.25823689 -0.18794589 -0.13251458 -0.48354602 -0.050067883
-0.2748195 -0.28659195 -0.177597 -0.5540182 -0.16454081 -0.6088345 -0.0549284 -0.38903016
-0.3545668 -0.38422933 0.08491567 -0.3283411 -0.3051828 -0.5366612 -0.22013776 -0.37577906
-0.09015486 -0.24004504 0.024031797 0.06965262 0.20733352 -0.4981863 -0.3273388 -0.48133036
-0.35478446 -0.33320153 -0.6541545 -0.16596511 -0.49929062 -0.45162466 -0.15568203 -0.21550666
-0.48410705 -0.73427993 -0.39450297 -0.4821144 -0.49876407 -0.24710283 -0.5521203 -0.35334957
-0.015058832 -0.2002464 -0.48355788 -0.1978752 -0.14017974 0.14845082 -0.29487923 -0.39045277
-0.5184151 -0.5706883 -0.17773235 -0.43800214 -0.079949625 -0.2852414 -0.2690634 -0.13639484

module.fc2.weight f4 [256, 256]
00000000: 0ef1 243d f041 93be daec 1ebf f21f 873e
00000010: 730b f7bc b774 e1be 8e8c f43e 72c7 003f
00000020: 89e6 433d d042 023e 6230 28be dd1a 8a3e
00000030: 1b18 e1bd 4b5a eb3e b86d 373e 2ce9 57be
00000040: fa8e 6ebe 195e 743e 6b5c de3d 36e1 aa3d
00000050: 1813 dd3d 6050 6cbd 6ae6 b83e 3590 af3e
00000060: be58 a33e c550 c53e ca43 393e 8743 07bf
00000070: f290 883e e699 223e 9466 2dbc 31ae dabd
00000080: bf86 fe3e 73f2 c4bd 388a 03be acd9 af3d
00000090: a3b5 e43d da8f e7bc e030 9dbe 4f53 813d
000000a0: 8c3d 9ebe 21c2 8f3e 0b43 d53c e71d ca3d
000000b0: 9de0 ecbe fd0f 213d eca5 41be 6612 abbe
000000c0: b652 ccbe 62cf 363e ff90 b1bd b2b2 8c3e
000000d0: 01f2 d33e 77b6 0d3e 3cd8 743e 5697 2c3e
000000e0: c172 56be 03b6 f1be 4fe7 963e b7b2 be3d
000000f0: bf6f b8be 0f0d 5dbe 7d20 b7bc 8b7a 083f
00000100: 33c1 353e c315 f1bd b2bb da3d 36c1 62bb
00000110: d6cd 883d fa02 ee3b 5fe0 7f3e 0ff9 12be
00000120: cebf db3d e3c9 0bbd 56e8 d83a 12ea e3bc
00000130: 2483 8b3e 0704 73bd e137 d1bd 45f3 27be
00000140: d6ea 753e a3f3 543c 04c9 b73c 38c2 583e
00000150: 5739 b53e 4086 1b3f 400d 88bd f4c5 7bbe
00000160: 7bb5 803e 5348 6a3d 6306 d03d a8af bf3d
00000170: 6339 393e 2651 2f3d cc24 af3e 16b2 783e
00000180: 3424 8f3e 5af3 ad3e 041d ecbe 98c1 efbd
00000190: c2fc f13d 25f1 83be cda8 333e fb38 393e
000001a0: 1618 b03d 5b19 c8bd bb57 063e 2af0 dc3d
000001b0: 400d f03e 8ff2 51be 28f3 1a3e 7cd3 57bd
000001c0: 3bae 96bd 0ba6 a83e b537 6f3d 8e68 4ebe
000001d0: b53d 26be 8837 96bd a520 183f cdcf 9c3d
000001e0: 514c a13a f52d 8bbe 611f 89be d2c3 073d
000001f0: 1922 e4be 694a afbe 7b44 b63e b803 8a3d
00000200: 594b a4bd 9574 0b3b a1be 7bbe 81da 6b3e
00000210: 4eb3 b4bc 5eed d33e e34a 8e3e 6ebe 0dbf
00000220: 42c8 a8bd 577e f63c 611c 84bd 8d74 c73e
00000230: c4cf 01bf efec 8a3e f929 46bd ec20 a63d
00000240: a5ca 8a3e c7cf 37be 81d7 233d 4dd5 df3d
00000250: 19a3 87bd e5ab b3be 92ac ef3e 4339 dc3d
00000260: 3d79 963d 5e67 633c 8ee9 1dbd b0cf d33d
00000270: a106 cfbd 8a2a 11bf 5b07 6cbe b55a 883d
00000280: 321a e3bd 2280 71bd 8a57 a93e 1a8e a0be
00000290: 0748 50bc 1e6f e9be 8a76 0fbe 5182 a9bd
000002a0: 5741 123b e9e7 cf3d d72d 28be ef42 ef3c
000002b0: b7b1 d73c 4ef8 083e 9f27 503d 2289 fa3d
000002c0: 2293 e53d 2a9f da3e 63c3 6e3e 1657 b83c
000002d0: db79 953e f802 27bf ccf7 373e 9a81 d23c
000002e0: 31dc 783e d4ac dd3e 789a 95be fa71 3b3e
000002f0: 6885 01bf 708d d83d 9d7a 3c3c 9db1 5ebe
00000300: 9541 8abe 8d13 bfbe 4742 f5bc ca0c 753d
00000310: 2595 bcbe 55d6 12bf 579f fe3e e233 d2be
00000320: c675 94bd 720f 71be f149 c33d da6c 4d3e
00000330: 2c6b 043d ae42 55be e29b 533e bf13 643e
00000340: 442d adbd c4a4 82bd e0ec 5a3d 44bf 8f3d
00000350: 76f0 863e f3a6 89be 090d a4be 97da 4abd
00000360: 473c 253e c476 a63d df81 b8be 1c9b fa3e
00000370: 272c 2d3e 5384 31be be15 4b3c b242 4abe
00000380: 1215 c2be 6c75 773d 7c01 353e 334c 713e
00000390: 3744 acbd 2245 ad3b 8a02 aebd 6d67 f93e
000003a0: a1be 07bf e956 963d 8445 4fbe a22e 8dbe
000003b0: cb6a c73e 3096 f0be 109c 48be 2eb8 f4be
000003c0: e8ca 3e3e 53bb fcbc b349 21be 2cfd 7ebd
000003d0: 09ca b53e 4d8c 11bd ccb8 f13c 7512 8cbd
000003e0: 3d22 ddbd 3d1a 6d3e c7db febb f024 343e
000003f0: eaa9 93be 5c83 123e da1c 253e d396 e1be
0.04026895 -0.28761244 -0.62080157 0.2639156 -0.030156827 -0.4403436 0.47763485 0.5030433
0.047827277 0.127208 -0.16424707 0.2697362 -0.10990926 0.45967326 0.17912948 -0.21085042
-0.23296729 0.2386402 0.10857471 0.08343737 0.107946575 -0.05769384 0.36113292 0.3428971
0.31903642 0.38538185 0.18092266 -0.52837414 0.26673084 0.1587902 -0.010583539 -0.106777556
0.49712178 -0.09616556 -0.12845695 0.085864395 0.11167457 -0.028266836 -0.3070135 0.06314718
-0.30906332 0.28077796 0.026032945 0.09868985 -0.46265116 0.03932189 -0.1891095 -0.33412474
-0.39906853 0.17852548 -0.08670234 0.27480084 0.41395572 0.13839136 0.23910612 0.16854605
-0.20942213 -0.47209176 0.2947335 0.09311431 -0.36022756 -0.21587013 -0.022354359 0.53311986
0.17749481 -0.11771729 0.10680331 -0.0034600026 0.06679885 0.0072635384 0.24987935 -0.14352821
0.10729943 -0.03412808 0.0016548734 -0.027821574 0.2724849 -0.059330013 -0.10215736 -0.16401394
0.24015364 0.012997541 0.022434719 0.21167839 0.3539531 0.60751724 -0.06643152 -0.24587232
0.2513846 0.05719788 0.10157468 0.09359676 0.18088298 0.042802 0.3420776 0.24286684
0.27957308 0.33974725 -0.46115887 -0.11706847 0.11815788 -0.25769916 0.17544861 0.18088143
0.08598344 -0.09770461 0.13119404 0.10787995 0.4688511 -0.20502685 0.15131819 -0.05269192
-0.073574506 0.3293918 0.058402736 -0.20157072 -0.16234477 -0.073348105 0.5942481 0.07656822
0.0012306069 -0.271835 -0.26781753 0.033145733 -0.44557264 -0.34236458 0.3559912 0.067389905
-0.08022184 0.0021279205 -0.24584438 0.23032571 -0.022058155 0.41392034 0.2779151 -0.553687
-0.08241321 0.03008954 -0.06450725 0.3895611 -0.5070765 0.2713389 -0.048379872 0.08111748
0.2710773 -0.17950355 0.040000442 0.10929356 -0.06622905 -0.35092083 0.46811348 0.10753109
0.07347343 0.013879625 -0.038552813 0.103423476 -0.10108686 -0.56705534 -0.23049681 0.06657926
-0.11088981 -0.058960088 0.330746 -0.31358415 -0.012712485 -0.45592588 -0.14010063 -0.08276809
0.0022316778 0.10151655 -0.16423737 0.029206721 0.026329858 0.1337597 0.050819036 0.12233187
0.11209704 0.42699558 0.23316722 0.022502463 0.2919453 -0.65238905 0.17965621 0.025696564
0.24302746 0.4329592 -0.29219413 0.18305197 -0.50594187 0.10573852 0.011503843 -0.21747442
-0.2700316 -0.37319604 -0.02993883 0.05982665 -0.36832538 -0.57358295 0.49730942 -0.41055208
-0.07249026 -0.23541048 0.095355876 0.20061055 0.03232877 -0.20826218 0.20664933 0.22273158
-0.08455899 -0.06379083 0.053448558 0.07018903 0.26355332 -0.26885185 -0.32041195 -0.04952487
0.16136275 0.081281215 -0.36036584 0.48946464 0.16911374 -0.17335634 0.01239532 -0.19752005
-0.379067 0.060414717 0.17676347 0.23564224 -0.084114484 0.0052877823 -0.08496578 0.4871172
-0.5302525 0.073407955 -0.20241362 -0.2757464 0.38948664 -0.46989584 -0.19590783 -0.47796768
0.1863209 -0.030851042 -0.1575077 -0.062253162 0.35505703 -0.035534192 0.029507063 -0.06839458
-0.10797546 0.2315454 -0.0077776643 0.17592216 -0.28840572 0.14307922 0.16124287 -0.44060382

module.fc2.bias f4 [256]
00000000: c79f a2bd 2d22 a4be a10a 39be 059e 01bd
00000010: 5b22 873d a579 08bd 6d6b 22bd 6578 a2bd
00000020: 53de 8abe c169 14be 6367 b7bd 62c3 44be
00000030: c1dd 22be da2e 96bd 38ee 87bd 9c6d fa3d
00000040: 65f4 8d3c a03f 2dbe 2772 c8bd 34fe e7bd
00000050: ecfe 98bd 8389 94bc 48cf 62bd 944a 123e
00000060: a2da 7cbd 0b85 98bd 15d4 4fbe 45a9 c0bd
00000070: eef1 b5bc c23a 5cbd 9145 9dbb 52ea b8bd
00000080: ac3f cc3d 4612 b6bb 6ca7 30bc 0bb4 99be
00000090: 8c5b 46bd 9adb d7be a661 13be 3b6a 03be
000000a0: 29a3 da3b a018 123e 3e80 38bd bbf0 473d
000000b0: 0b96 84be e323 4abe 725f 2abd 2428 9abd
000000c0: 4dd1 b5bd 37f3 c4bd 9a10 edbc b882 e2bd
000000d0: 5367 95be 007e e9bd 5f19 973c b609 a2bd
000000e0: a16d aabd 04ec 48bd a065 12be 54e8 b93d
000000f0: 171f 31bf 8612 71bc 52e5 6bbd 54b0 01bd
00000100: e8fa 8cbc 087b 98be bd9e 87bd b976 27be
00000110: d4c5 423e 138c 95bd 31db 8abc b54b 9e3c
00000120: 87ad 8dbe b1c9 b7bc 4881 afbd ee9d 4ebd
00000130: 361b 45bd 6a60 35be c0e8 10be b40e 333e
00000140: 6982 46bd 7ee1 46be f5e2 32bd 5c32 7f3d
00000150: 5502 8cbd d16b 51bd 9510 14be 0f93 42bd
00000160: 487a b3be 3b9b 5cbd 9c2c e6bd 8ba3 06bd
00000170: df4b a83e b50c 84bd 663c 6ebe c5d5 ad3e
00000180: 15bb 2fbc a943 c93e 4458 e73c 4b16 99bd
00000190: 77df 5ebd fca8 3fbd 1331 b0bd 0572 0c3d
000001a0: 5978 27bc d6b5 5c3d 3447 fa3d e9d7 42bb
000001b0: c0cb ccbd dcf8 313e 6454 cebe ee55 d5bd
000001c0: 5409 163e 0cf8 51be aa8a 8e3d 3c84 04bc
000001d0: 3df2 0ebf bd6b 37bc ee38 06be bfbe 513a
000001e0: c407 04bd 97b9 85be ce80 0b3d 770a 373e
000001f0: 208d b23b 3056 3bbe dcc1 8dbd 9518 8b3d
00000200: e164 b7be 32b4 c83b 25a3 3dbe 3951 023e
00000210: 8896 24bc 5f21 0abe 8060 02bd 7cc4 8ebd
00000220: fc1d 01be 7eb6 083e 702c 9cbd 09f8 eabb
00000230: c3df 6638 1a57 9fbe 6761 54be c8b2 79be
00000240: c8ca 3dbd fa37 e1bc 65b9 a2bd 0288 423a
00000250: c059 7cbd 16ba 613c 8397 683e 3914 a63d
00000260: 0b7e 6e3d 56df 06be e6dc 04be 0ff0 593d
00000270: 8553 6c3b 904c c83e 43ef ffbd 49cc 9fbd
00000280: 03cf 8fbd 87f6 e5bd e85b f5bd 7570 bcbd
00000290: f9f0 c5bb af38 2bbe c32b 253c a30d 933e
000002a0: db90 3f3d f535 ac3e 5390 453d eab7 77bd
000002b0: 768b e8bd 916b 7abe e393 19be 9c7e babd
000002c0: 40b8 c5be a6fa 12be 4d85 e63b ba18 97bd
000002d0: 7427 05bd b2b7 a23c f548 71bc a543 58bd
000002e0: fbf5 75bd 23ec b8bd 9caa 81bd 9fe4 adbd
000002f0: f5f1 aebd 3669 6f3e 2a3d 243c d885 a23a
00000300: 5f4b 01be 46f7 fd3a 520d 2f3e 008b ff3d
00000310: 256c c0bc 393d cbbe 3b1b e33a 400a 1abe
00000320: ad88 63be e038 773d dae4 7bbe 188f 19bc
00000330: 2a16 18be 3b34 56bd d65d 13be b4fe 943c
00000340: d8c9 a0bd 04f0 8cbd d0aa adbd a805 27bc
00000350: 7b66 89be 3d77 383e 1c28 30bc d901 ebbd
00000360: a0d5 61bd f3e4 6cbd 549f 483d be22 dabc
00000370: 5064 ec3d 5f29 bc3c a2e1 293c 9e8a d9bc
00000380: 1c60 56be fccf 04be 193d ffba 3fbd 393c
00000390: 7647 643c 4d7c a9be 1ddd 09be 6552 3c3c
000003a0: cf3a f1bd 1ee0 abbd b250 a2bc 6fa4 a7bd
000003b0: 78c0 6a3d 5bd0 b7bd c915 613d d0c8 14bc
000003c0: 5160 a03c cb92 0abd e4ad b5bd 165b 9ebc
000003d0: ccee c33c 3aaf b9be 41e4 d5bc 306a 2c3d
000003e0: cd5b a53d 79ef adbd 74c9 2d3d 4caa febc
000003f0: 617a 3ebd 2e9c 3dbd 2279 11bd 687a 2f3d
-0.07940631 -0.32057324 -0.18070461 -0.03164484 0.0659835 -0.033319134 -0.03965323 -0.0793312
-0.27122745 -0.14493467 -0.08955266 -0.19215158 -0.15904905 -0.07333155 -0.066372335 0.122279376
0.01732845 -0.16918802 -0.09787398 -0.11327782 -0.074704975 -0.018131977 -0.05537346 0.14286262
-0.061731942 -0.07447251 -0.20295747 -0.094072856 -0.022210088 -0.053766973 -0.0047995527 -0.09029068
0.09973082 -0.0055563776 -0.010782104 -0.30020174 -0.04842715 -0.4215973 -0.14392719 -0.12833492
0.0066722822 0.14267206 -0.045044176 0.048813563 -0.25895724 -0.19740252 -0.04159493 -0.075271875
-0.088778116 -0.09616702 -0.02893858 -0.11060089 -0.29180393 -0.11400986 0.018444715 -0.079120085
-0.08321691 -0.049053207 -0.1429658 0.09077516 -0.69188064 -0.014713889 -0.057591744 -0.0316623
-0.017209485 -0.29781365 -0.06622074 -0.16353883 0.19020778 -0.07302108 -0.016950222 0.01932321
-0.27671453 -0.022435041 -0.0856958 -0.050443582 -0.048121653 -0.1771256 -0.14151287 0.17486078
-0.048464213 -0.19421956 -0.043673474 0.062303886 -0.06836382 -0.051128212 -0.1445945 -0.047503527
-0.3505423 -0.053858977 -0.11238977 -0.03287081 0.32870385 -0.06447736 -0.23265228 0.33952156
-0.010725756 0.39309433 0.02824033 -0.07474955 -0.05441233 -0.046792015 -0.0860311 0.034288425
-0.010221564 0.05388435 0.12220612 -0.0029730743 -0.099998 0.17380089 -0.4029876 -0.104167804
0.14651996 -0.20504779 0.06960042 -0.008088168 -0.55838376 -0.01119512 -0.13107654 0.00080011407
-0.03223397 -0.26118156 0.034058385 0.17875086 0.0054489523 -0.18294597 -0.06921741 0.06791798
-0.35819152 0.0061249966 -0.18519266 0.12726296 -0.010045655 -0.13489293 -0.03183031 -0.0697107
-0.12609094 0.13350865 -0.07625663 -0.0071706814 5.5044668e-05 -0.3112114 -0.20740281 -0.24384606
-0.046335965 -0.027492512 -0.079455175 0.00074207794 -0.06160903 0.0137772765 0.22714047 0.08109326
0.058225673 -0.13171133 -0.12974891 0.053207453 0.0036060524 0.39120913 -0.124968074 -0.07802636
-0.07021906 -0.11228662 -0.1198042 -0.09201137 -0.006040689 -0.16720842 0.010081234 0.28721341
0.046769004 0.33634916 0.04823334 -0.06047813 -0.11354725 -0.24455096 -0.1499782 -0.0910618
-0.38617134 -0.14353427 0.0070349337 -0.07377763 -0.03250833 0.019862983 -0.014726867 -0.052798886
-0.06004904 -0.090294145 -0.06331369 -0.08490872 -0.085422434 0.23379979 0.010024348 0.0012399508
-0.12626408 0.0019376061 0.17094925 0.12477684 -0.023489067 -0.39695147 0.0017326841 -0.15042973
-0.22220106 0.060356975 -0.24599019 -0.009372495 -0.14852205 -0.052295905 -0.14391264 0.018187858
-0.07850999 -0.06881717 -0.084798455 -0.01019422 -0.26836 0.18014236 -0.01075175 -0.11474962
-0.05513537 -0.05783553 0.048980072 -0.026627894 0.115425706 0.022968946 0.010368736 -0.026555356
-0.209351 -0.12969965 -0.0019473165 0.011336624 0.013933053 -0.33102646 -0.13463254 0.011494254
-0.11778795 -0.08392356 -0.01981387 -0.0818566 0.05731246 -0.089752875 0.054952417 -0.009081081
0.019577177 -0.0338314 -0.08871058 -0.019330543 0.023917578 -0.362665 -0.026109817 0.042093456
0.0807415 -0.084929414 0.04242845 -0.031087063 -0.04650343 -0.046291523 -0.035515912 0.042841345

module.fc3.weight f4 [4, 256]
00000000: 17ca 98bd 9fe5 05bf ea86 acbd 7e74 92bd
00000010: 9ee0 4e3d fd5d 043b 0ef1 d3bc 922d 59bb
00000020: c956 103d 7620 58be 360c 553d f43a 953e
00000030: 31af 09be 05b9 f33e 7ca8 37bc a936 a43e
00000040: abe9 e4be 7948 24be 42ac 26be 3f5b 6b3c
00000050: 8297 df3e 0973 18bc f341 a13d a787 dcbd
00000060: d1ff 18bc ec49 0bbc 5c51 793e dd7e f7bc
00000070: 3b97 94be 766e 803a dfa5 543e 26bc cebc
00000080: e6c9 ad3c a3ed 6fbc 2b5e 94bb 1afd 0ebd
00000090: ec9e ed3a 44c2 803d 532c 04bd 7303 3b3e
000000a0: 9a46 bbbb 5076 9ebe 1252 453e c0e1 11bd
000000b0: 0f49 d8be 8d78 7c3b b744 4c3c 4a93 80be
000000c0: 4773 583e 85cd 343d e467 aebc fb3d 89be
000000d0: d9dc ffbe 3eba 873e 3d85 18be c395 4bbd
000000e0: f7e0 403b 660e 90bc ded4 d8be a165 dfbd
000000f0: c2a2 bdbd 6279 62bc 784e a83d bf59 c6bc
00000100: 2295 babe c743 b23e b587 163f 7073 54be
00000110: 53ac 2cbf 455f 743e 061a 9dbb 6653 afbc
00000120: 2c9c 103e 4a5b b0bc 0013 90bb 3fea 83bc
00000130: 2686 40bf 3dac 83bd 06e1 93be 529b 993d
00000140: aac6 a2bc b1c3 9bbd 794a 103f b0ab 72bb
00000150: 84a2 d7be 74dd cabb a5fc a4be 836d 2d3f
00000160: 43bb 3cbf 68b5 87be 83ea 7d3d fa3a 023d
00000170: 221a cfba 1eca 2b3c 52b9 f6bd f8d7 bbbd
00000180: 587a 49bc 6bff 7bbe 35f7 6ebe ac0b 60be
00000190: cb44 29bc 873d acbb 0bc3 d03c 311f 94be
000001a0: f287 ecbc 674e 913e e323 39be f43b db3e
000001b0: 7f30 983e 4a59 7fbe b4eb 56be d94b c93b
000001c0: 339b 053f 0432 eb3d 5e28 27bf 987b 6e3e
000001d0: 50dd fb3d 4f69 78be 2994 943c 4367 07bb
000001e0: 24c1 38bd a018 b0be e985 ff3c 3f8d 22bf
000001f0: d481 5abe 1c0d fc39 ec5f e93b d643 a3be
00000200: fbd5 abba fcbd 82bc 6f17 bc3d 7311 1abe
00000210: 9a70 87bd a7f5 ddbd 028b 57bc a000 9dbc
00000220: 333f 2a3e df88 aebc 3fa4 6cbc 60eb 56be
00000230: b899 9dbc d520 ad3e a9ac 803e 9629 8f3d
00000240: c5da 24bd 1942 113e be09 2fbc eb44 09bc
00000250: 1206 80bd 5faf 0dbd a216 32bd 8614 7d3e
00000260: 9ff6 f4bd 17d0 06bd d51b c8bb 0232 523f
00000270: cef2 253a 46d4 09bf d8bb 913e 64be 0bba
00000280: 86fd 7d3f 5f23 253e a9b6 763d e7f0 92bd
00000290: 21f9 b9bc 2bed 4dbe 808f 793c 5a90 eb3e
000002a0: 67ea dbbe 497a 75bd 56e9 03bf be7c 4d3d
000002b0: ea6f 1abc 7bfd 453d 77ff b3be 811f e6bd
000002c0: 7e00 84be b684 83be bd10 083e 9e12 d2bc
000002d0: cbdd 4abc c8ed 41be e170 ce3e 2a16 303b
000002e0: 642d 85bc ec70 193c 5588 8dbd d238 0ebd
000002f0: 32cb 093c a197 83be 40ba 27bc 4ef4 fabc
00000300: 2a90 5a3f 80ad a9bb bd55 e43d 87a6 11bf
00000310: eeba 4abc 4404 b33d 0b90 e9bc 4595 013f
00000320: 1634 eebe 66ed 44bd 8e7f 1a3f aa19 60bc
00000330: c4ad b43e ffbf 05bf 2899 193f 632a a7bc
00000340: d18c 9c3c fcdd 183c f5fd 87bb ab19 21bc
00000350: ffcf 913e e7ea b83d 9812 793e d3b6 a0be
00000360: a085 cd3d 3264 b53d 397a 243f 3662 0bbc
00000370: 0ef5 31be 9831 9ebc 7a53 5cbd cd9d 8a3e
00000380: 4ece 1abf eb80 5b3e dea9 e8be 49c4 8f3a
00000390: 1f0f 613e 5d17 1c3f 758d fe3b a9f6 d5bc
000003a0: 95c7 87bd d4f2 0fbd f5d0 f6bb a61c 75bc
000003b0: d0d6 df3e 702a 5cbc 81df 9abe 65b1 033d
000003c0: 55e4 8dbc 4e37 4bbc 7637 a33b 93f4 6b3e
000003d0: 46a2 afbb d457 1fbd a34f 90bc 425e 24bf
000003e0: 6c79 823e a500 3dbc e3d0 a63e c5fe 423b
000003f0: 4a2f dcbe a898 23bd 8d9c 89bc 4b07 f2be
-0.074604206 -0.523035 -0.0842417 -0.07151125 0.05050718 0.0020197623 -0.02587178 -0.0033138734
0.035239015 -0.21106133 0.0520136 0.2914654 -0.13445736 0.47602096 -0.011209603 0.32072952
-0.44709525 -0.16043271 -0.16276649 0.0143650165 0.4367028 -0.00930477 0.07873907 -0.10768061
-0.009338335 -0.008501511 0.24347442 -0.03021186 -0.2902163 0.0009798545 0.207664 -0.0252362
0.021214437 -0.014644059 -0.0045278273 -0.034909345 0.0018129027 0.06287053 -0.032268833 0.18263035
-0.0057152035 -0.3094964 0.19269589 -0.035615683 -0.4224324 0.0038524002 0.012467555 -0.25112373
0.21137725 0.04414131 -0.021289773 -0.268051 -0.4997318 0.2650928 -0.14894576 -0.04970337
0.0029430964 -0.01758499 -0.42349905 -0.10908056 -0.09259559 -0.013822885 0.08218092 -0.024212716
-0.36441904 0.34817335 0.5880082 -0.20747161 -0.67450446 0.23864467 -0.004794362 -0.021402072
0.14122075 -0.021527905 -0.004396796 -0.016102908 -0.75204694 -0.06429336 -0.28882617 0.07500328
-0.019870121 -0.076056845 0.56363636 -0.0037028603 -0.42116177 -0.00619095 -0.32224002 0.67745227
-0.7372324 -0.2650559 0.061991226 0.031794526 -0.0015800635 0.0104852 -0.12047066 -0.09172052
-0.012297235 -0.24609153 -0.2333649 -0.21879452 -0.010331343 -0.005256358 0.025483629 -0.28930047
-0.028873418 0.2838013 -0.18080096 0.42819178 0.297245 -0.24936405 -0.20988351 0.006143075
0.5218994 0.11484149 -0.6529597 0.23289335 0.122980714 -0.24258922 0.018137055 -0.0020660914
-0.04510607 -0.34393787 0.031191783 -0.63496774 -0.21338588 0.00048074953 0.0071220305 -0.31887692
-0.0013110036 -0.015959732 0.09184157 -0.15045719 -0.06613274 -0.1083787 -0.013155701 -0.019165337
0.16625671 -0.0213055 -0.014443456 -0.20988226 -0.019238338 0.3381411 0.2513173 0.06990354
-0.040247697 0.1418537 -0.010683475 -0.008378248 -0.06251158 -0.034591075 -0.043478616 0.2471486
-0.11961102 -0.032913294 -0.0061068335 0.82107556 0.0006330431 -0.5383953 0.28463626 -0.00053307996
0.9921497 0.16126774 0.060232792 -0.07174855 -0.022701802 -0.20110004 0.015231967 0.4600857
-0.42952272 -0.059931073 -0.5152792 0.05016779 -0.009426096 0.04833744 -0.35155842 -0.11236478
-0.25781626 -0.25687188 0.13287635 -0.025643643 -0.012381981 -0.18938363 0.40320495 0.002686868
-0.016256995 0.009365302 -0.06910769 -0.034722157 0.008410262 -0.2570162 -0.010237277 -0.030634072
0.85376227 -0.0051781535 0.11149166 -0.56894726 -0.012373669 0.08741048 -0.028511068 0.5061839
-0.46524113 -0.048077963 0.60350883 -0.013677994 0.35288823 -0.5224609 0.5999932 -0.020405954
0.019110115 0.009330269 -0.004150147 -0.00983278 0.28479 0.09029179 0.24323499 -0.31389484
0.100352526 0.08857001 0.64248997 -0.008507302 -0.17378637 -0.019310758 -0.053790547 0.27073517
-0.60471046 0.21435897 -0.45442098 0.0010968532 0.21978424 0.6097315 0.007768328 -0.026118593
-0.06629864 -0.03514369 -0.007532234 -0.014960444 0.43718576 -0.013437852 -0.30248645 0.0321516
-0.017320791 -0.012403322 0.0049809767 0.23042516 -0.0053599207 -0.03890212 -0.017616099 -0.64206326
0.25483263 -0.011535798 0.32581243 0.0029753905 -0.4300483 -0.039940506 -0.016798282 -0.4727119

module.fc3.bias f4 [4]
00000000: 41e8 103e 8bb3 bdbd 46a3 d63d 4903 ccbd
0.14151098 -0.09262761 0.10480361 -0.09961564

module.fcs1.weight f4 [256, 33]
00000000: 0506 373c f9e4 a53d 7f24 65be 840e d6bd
00000010: 40e7 26bc c7ff f7bc 7da3 d1bd 1809 32bd
00000020: 86b6 18bd c4b7 40bd 6069 b9bd f993 6b3c
00000030: 901c c4bd ec10 ac3d 32e0 dd3c 09ed 60be
00000040: 85d4 d73c 724f 3a3d 1fe9 4b3d ea73 a5bc
00000050: 4366 d03d 3bbe b13d 4a7c a8bd 2831 1f3e
00000060: b045 5ebd 8fbb 0ebd 68f8 a5bc 8ff6 6c3e
00000070: c3d1 003e 9020 0c01 4e95 6ebe ac5a 5181
00000080: 07d4 6c3d 279a b6be 964f 093d f629 4e3d
00000090: 4dd4 a6bd 937e b8bd f74c 2cbd dd51 9bbb
000000a0: 7d4e 873c 7ab9 dabb 1bd3 54bd 8952 a3bd
000000b0: a33f 763d d83b 053e f270 9d3c b624 4a3e
000000c0: 8eda a63a b83e 4ebd b2f9 afbc 4523 c4bc
000000d0: cd6a 243d ee05 af3c c383 4e3d 5b1d 233e
000000e0: b434 8dbc f2d0 77bd 3373 e9bc a806 3d3e
000000f0: d4f8 243e 440b 1cbd 142f 1e80 0d14 01be
00000100: 02a2 6481 3a6a 13be d7fa 6bbd a8ea 173e
00000110: 9c08 893b e5a1 22bd a779 3fbc a9b0 bebb
00000120: 8119 6c3d 7938 18bd 35e7 cf3b 5c97 8ebc
00000130: 2aa1 a2bc f4b6 41bd 8ddb d33d 56a4 3b3d
00000140: d571 6c3d c985 3c3d 8944 ba3c 654e 90bc
00000150: f28c fcbc 1370 363c 8528 44bb 32e3 a13d
00000160: 1ca5 863b 4cf1 2c3d bc7a 313e 2cde 36bd
00000170: e410 08be 4be8 1e3e 8619 373c 8d27 9181
00000180: 0f6a 1bbe ec24 da80 9306 7f3c 5a3a 1dbc
00000190: af83 443e 877c a83d 03a9 c2bd 7b6a 143d
000001a0: b9ca 04bd 6b1a 083d 3ac6 883d e8af 233a
000001b0: f776 003c c7a3 d3bb e5b6 c33c d8e6 ab3d
000001c0: bb3f 21bd 25da e63d 52e8 7fbd 3f1e 3abd
000001d0: 3367 653c 316b db3c 3b3d 173b 37fd 563d
000001e0: 0dec 7a3d 0812 8dbd 01c0 b23c e2d4 fc3c
000001f0: 899d 253d 12af 3cbc 63bf 183e 2b29 c03c
00000200: 1653 ac81 a857 1bbe 64b0 9580 8729 2abd
00000210: ee2c 543d ebae d63d d661 433d 9c41 e5bd
00000220: be6c 873c e9e5 f5bc f382 93bc 81be dd3d
00000230: e88c 02bd 14f8 263c 5d55 8dbd 13ea 9fbd
00000240: 01ac 1c3e 9c2c 513d ac4b f23d 6fe1 d83d
00000250: 184a 543d 014b dcba 4480 57bd ffa9 3d3d
00000260: 794f 0d3e cb3a b8bd 6be8 543d 0001 013d
00000270: 9c17 203e 77b3 85bd e602 b4bd 4d98 293e
00000280: 3e58 183e 3846 ae01 0c5c 20be bc81 5200
00000290: 6c64 b9be 4bf4 133e aa19 543e 8183 b23e
000002a0: aa46 3cbc 61bc 063c 5e59 733c 22bd 303d
000002b0: 655a 503d 3642 163e e54b f6bc 6205 c03c
000002c0: 8903 e2bc d447 0f3b 7be2 89be 94e9 bcbc
000002d0: 6a7c e7be d7a2 663d 5137 ae3c 9b19 d1bc
000002e0: eadb 733c 3e9c 853d 93fc 993d b37d 22bd
000002f0: 369c dbba 0848 94bd c6d4 10be 9f13 883e
00000300: c64c a13e 2afa 6e3e 4925 8f01 e5d1 7abe
00000310: 2cd4 9580 395b 6fbf 7769 663d 9bf4 bcbc
00000320: 7dee b0be 4296 88bd b10e e9bd ed20 28be
00000330: 0f49 863d 36fb d5b9 c114 e1bd 0ff8 ea3c
00000340: 1002 cdbc 8c22 fdbc 975b 4c3d 1fd6 96bd
00000350: 21b4 293e d13d f33e 1506 873c 657f f33d
00000360: 16c7 023c acac bcbd dafa d43c d15e 58bd
00000370: bf87 ae3c b17d a13d 009d 833c 0fc5 de3d
00000380: 1ea6 233e f5e1 803e 4a2c 84be b256 2d01
00000390: fda7 7fbe 7d18 8281 1060 8d3f 0867 02b7
000003a0: 9d1a 0cbe 1d38 8c3e e137 d7bc 619d 4a3d
000003b0: 6472 5dbd 5b7d b43d 8e64 05bd 1f3b 9a3b
000003c0: 81eb 9fbd a369 b6bd 4d60 2abe 80a7 c33c
000003d0: a887 1c3d f5cd 273e b0f6 0abe 1956 2dba
000003e0: 342b 563d 5556 293c 6250 bbbc c2bf d1bb
000003f0: 4aab bfbc 873d 70bd 9d9c a03d 132e 103e
0.011170869 0.08100314 -0.22377203 -0.104519874 -0.01018697 -0.030273331 -0.10236261 -0.043465704
-0.037283443 -0.047050253 -0.09053302 0.014378541 -0.0957576 0.08401665 0.027084444 -0.21965422
0.026346454 0.04548592 0.04978287 -0.020196874 0.10175755 0.08678862 -0.08226831 0.15546095
-0.054265678 -0.03484684 -0.02026005 0.2314093 0.12580018 2.57373e-38 -0.23299143 -3.845229e-38
0.057819393 -0.35664484 0.033523165 0.050332986 -0.08145962 -0.09008517 -0.042065587 -0.0047399835
0.016516918 -0.0066749426 -0.05195914 -0.07974727 0.060119282 0.1301111 0.019218896 0.19740567
0.0012729929 -0.050352782 -0.021481369 -0.0239426 0.040140916 0.021365132 0.050418627 0.15929167
-0.017237045 -0.060502 -0.028497314 0.1845957 0.16110545 -0.03809668 -2.771953e-39 -0.12605305
-4.199322e-38 -0.14395991 -0.057612266 0.14835608 0.0041819345 -0.039705176 -0.011686719 -0.0058193994
0.05764151 -0.03716323 0.0063447007 -0.017406158 -0.01985224 -0.04729362 0.1034461 0.04581102
0.057725746 0.046026025 0.022737758 -0.017615506 -0.030828927 0.011135119 -0.0029931378 0.07904662
0.004109038 0.042222306 0.17331976 -0.044645473 -0.13287693 0.155183 0.011175519 -5.332134e-38
-0.15177177 -2.0033383e-38 0.015565532 -0.009596432 0.19190858 0.08226877 -0.09504893 0.03623436
-0.032419894 0.03322832 0.06678434 0.00062441686 0.007840863 -0.0064587328 0.023890922 0.08393639
-0.03936742 0.112720765 -0.062477417 -0.045439 0.014001655 0.026784511 0.0023077268 0.05248758
0.06126027 -0.06888205 0.02182007 0.03086323 0.04043344 -0.011516349 0.14916758 0.02345713
-6.3302044e-38 -0.15170157 -1.3746766e-38 -0.04154351 0.05180066 0.10482582 0.047700725 -0.111941546
0.016531345 -0.030016856 -0.018006777 0.10827351 -0.03187266 0.010190982 -0.069010474 -0.07808318
0.1529999 0.051067933 0.118308395 0.10589873 0.051828474 -0.0016807021 -0.052612558 0.0463047
0.13799848 -0.08995589 0.051979464 0.031495094 0.15634006 -0.06528371 -0.08789615 0.16562004
0.14877412 6.4018264e-38 -0.15660113 7.57705e-39 -0.36209428 0.14448659 0.20712915 0.34865955
-0.011491457 0.008223624 0.01485285 0.04314912 0.050867457 0.14673695 -0.030065486 0.023440067
-0.027589576 0.0021862881 -0.26930603 -0.023060597 -0.45212108 0.05630764 0.021266611 -0.025524905
0.014883975 0.065239415 0.07518878 -0.039670657 -0.0016754929 -0.07240301 -0.14143667 0.2657747
0.31503886 0.23337618 5.2583405e-38 -0.24494131 -1.3759602e-38 -0.9349857 0.056252923 -0.023065856
-0.34556952 -0.066692844 -0.11379755 -0.1641881 0.065569036 -0.00040813693 -0.109902866 0.028682737
-0.025025398 -0.030900262 0.049892034 -0.07365059 0.1657262 0.475081 0.016482392 0.11889533
0.007982036 -0.09212622 0.025998522 -0.0528248 0.021304963 0.07885302 0.016066074 0.1087743
0.15981337 0.25172392 -0.2581504 3.1837283e-38 -0.24966426 -4.7789597e-38 1.1044941 -7.772593e-06
-0.13682027 0.2738656 -0.026271762 0.049466494 -0.05406417 0.08812972 -0.0325666 0.004706755
-0.07808591 -0.08906867 -0.16638298 0.023883581 0.03821531 0.1638716 -0.13570666 -0.0006612256
0.052287295 0.010335525 -0.022865478 -0.006401033 -0.023397107 -0.058652427 0.078423716 0.14080076

module.fcs1.bias f4 [256]
00000000: 5996 5fbe afa5 64bd 8b8c 1ebe 2b68 10be
00000010: c9f0 23be 251b c3be 7a3f a9be af67 6fbe
00000020: 48ba c9be 607f aabd fd8a 383d 438d 3bbe
00000030: 6c3c 11be 3c4a 31be b9f5 90ba a0e5 8cbe
00000040: ea5a a8be 9be0 4cbe 6fe2 49be 09b7 afbe
00000050: f3d2 69be 66d7 9bbe 7c3e 58be ed49 bcbd
00000060: d031 5abe b31b 47be ecd8 36be 6af8 7ebe
00000070: 672b 8dbe 8249 49be 8eae 39be 98bd 59be
00000080: 10e0 71be f2fc 3ebe aa6e 2fbe 859b 21be
00000090: 9e97 593e 09df 27be c751 eb3d 7ec9 80be
000000a0: e36c 1cbe c434 cabe 4be9 2fbe 2d5f 61be
000000b0: 17fa 4cbe 700e acbe e10c 1f3e 3a0c eabd
000000c0: e6fb 7ebe ae2d 93be 7d19 3fbe f016 23be
000000d0: a365 8dbe d5d5 81be 2888 e1bd ea27 17be
000000e0: 1807 87bd bf56 0ebe ef6b 94ba 9a34 31be
000000f0: 6bd0 40be 52e6 3bbe 7184 3fbe e664 a7be
00000100: bc89 a8be c283 d6be 6831 75be 7d8b 8bbe
00000110: 494e 01bc 5538 0abe fc20 adbc ee19 51bd
00000120: 1cd7 51be 9c51 65be 213b 4c3d 2a58 06be
00000130: 5073 073e b387 a0be 3552 10be f3c4 23be
00000140: f111 56be 4a5f 1cbe 5bcd 1bbe 8884 77be
00000150: 69ff 0dbe b6ee e4be c139 263e 45ea 34be
00000160: 1b22 3abe 069c 5bbe 01be 4bbe aacf 67be
00000170: 02d0 21be fbf6 8dbe 0f77 52be c747 1cbe
00000180: fe95 993d f265 82be 41d6 6dbe 6f90 58be
00000190: 89fb 18be 7aca 76be 8b7b 2dbe 0c79 00be
000001a0: 6f20 55be 25b3 e4bd 28e3 a8bd e08d 87bd
000001b0: 696a a4be 8422 3dbe a77a cabc 7a03 9b3c
000001c0: afe0 4ebe 3736 82bd a7d6 01be bc74 9bbe
000001d0: 74ae 1cbe 7c8d 47be 63c3 7ebe 61ea 87be
000001e0: 19e2 243c 1ffd aa3e d347 26be 9d95 69be
000001f0: e489 64be 4e3d 40be b9b1 25be 4492 3cbe
00000200: b8a6 cabe 76e3 6cbe c06c 90be d3ee 9ebe
00000210: 2b3f 24be 7833 adbd 6fe0 95bc 2611 20be
00000220: db40 53be e2c9 04be 13e1 09be c8bc a0be
00000230: bd97 233e 2ca7 44be 0642 50be de75 c6be
00000240: 7bbb 8dbe 2b1c 17be cbf5 39be 48e0 adbe
00000250: 30f1 4abe 4aa8 58be ee9c bebe c3ed c1bd
00000260: 3e42 80be a45a ffbd ed73 953d f2f5 2cbe
00000270: 2f8a 5bbd f40b 74be adbf 91bc b0cc 91be
00000280: e7f2 0ebe 05f7 0cbe 5a08 9cbe ffb4 cfbe
00000290: 254f 3dbe 27f2 16be f90b 71bd 51bf 9fbe
000002a0: f20e 9cbe 701a 7cbe 591e 12be 69e3 3dbe
000002b0: 0857 59be 3173 52be f752 16be 0d4d 9dbe
000002c0: ed7e 6fbe e029 55be 68be 2dbe d1fd 39be
000002d0: d755 12be 374b a5bd 2707 61be c991 5fbe
000002e0: 7d8a 82be 5086 84be 90f6 8dbe 83b8 06be
000002f0: 828f 82be 607b 1b3d f5a0 58be 67c6 94be
00000300: 8bcb 56be 9148 883d 8e03 a0bd e526 60bd
00000310: 89a4 91bd c069 90be a1dc 7bbe 52f7 00be
00000320: 7996 08be 0686 273e 0cda 45be 592a f33c
00000330: b5fa 2fbe 4d0c 65be ffbd 7cbe d862 1bbd
00000340: 2fc1 07be 2ad5 4ebe 22c7 6cbe e4fe bcbe
00000350: 2961 153b 1181 bbbe 872e 1dbe b57f a9be
00000360: 0b0a 5bbe 3b05 73be 2352 24be 91fc 58bd
00000370: a628 f2bd 1078 4ebe e875 8abe 863b 6bbe
00000380: 48a5 a03e e304 81be 3914 71be 28c6 26be
00000390: 7e0a d5be 17f5 00be 8352 3e3b be28 63be
000003a0: bada 84be 843a 20be 04d1 08be 3ebd 31be
000003b0: 6fac 8cbd 6434 b8bc d1fc 31be 76b6 5fbe
000003c0: a9a2 a9bd 8130 a8be 28a5 49be d85b 803d
000003d0: 92da 4fbe d9d6 16be 3403 a1be f7bf 16be
000003e0: 6961 053e 9dae 57be 0f38 f9bc a158 35be
000003f0: 9c4c 45be 7704 d7be 4b4a 3dbe 0409 6ebc
-0.21834697 -0.05582207 -0.154833 -0.14102237 -0.16009821 -0.38106647 -0.3305624 -0.23379396
-0.39399934 -0.08325076 0.045054425 -0.18315606 -0.14183205 -0.17313474 -0.0011059559 -0.2751894
-0.32881862 -0.20007555 -0.19715284 -0.34319332 -0.22834377 -0.30437773 -0.21117586 -0.09193788
-0.21308064 -0.1944416 -0.17856187 -0.2489945 -0.27572176 -0.19656947 -0.18132994 -0.2126373
-0.2362063 -0.18651178 -0.17132059 -0.15781982 0.21249244 -0.16393675 0.11490207 -0.25153726
-0.15275912 -0.39493382 -0.17178838 -0.22008963 -0.20017277 -0.33604765 0.15532257 -0.11428113
-0.24900779 -0.28745788 -0.18662067 -0.15926719 -0.27616605 -0.25358453 -0.11012298 -0.1476132
-0.0659315 -0.13900279 -0.0011323671 -0.17305222 -0.18829505 -0.18349579 -0.18702866 -0.32694167
-0.32917583 -0.41897398 -0.23944628 -0.2725486 -0.0078922 -0.13498051 -0.021133892 -0.05105012
-0.20492214 -0.22394413 0.049861077 -0.1311957 0.13227582 -0.3135353 -0.1409386 -0.15993099
-0.20905282 -0.15270725 -0.15215056 -0.2417165 -0.13866962 -0.44713372 0.16232969 -0.17667492
-0.18177073 -0.21446237 -0.198967 -0.22637811 -0.15802005 -0.27727494 -0.2055323 -0.15261756
0.07499312 -0.25468403 -0.23226263 -0.21148847 -0.14939703 -0.24100676 -0.16941659 -0.12546176
-0.20813154 -0.111669816 -0.082464516 -0.066188574 -0.32112435 -0.18470198 -0.024716688 0.018922556
-0.20202897 -0.06357997 -0.1267954 -0.303625 -0.15300924 -0.19487566 -0.24879222 -0.26546004
0.0100636715 0.3339624 -0.16238336 -0.22810979 -0.22318226 -0.18773386 -0.16181077 -0.18415171
-0.3958032 -0.23133644 -0.2820797 -0.31041583 -0.16039722 -0.084570825 -0.018295495 -0.15631542
-0.20630209 -0.12967637 -0.13464765 -0.3139403 0.15975852 -0.19204396 -0.20337686 -0.387618
-0.276821 -0.14756839 -0.18160169 -0.33960176 -0.19818568 -0.21157947 -0.37229103 -0.094691776
-0.2505054 -0.1246846 0.07297502 -0.16890696 -0.05359858 -0.23832685 -0.017791593 -0.28476477
-0.13959847 -0.13766105 -0.30475122 -0.40567777 -0.18487222 -0.14740811 -0.05884931 -0.3120065
-0.30480152 -0.2461946 -0.14269389 -0.18543781 -0.21224606 -0.20551755 -0.14680086 -0.30722848
-0.23388262 -0.20816755 -0.16967165 -0.1816323 -0.14290558 -0.08070987 -0.21975385 -0.21832956
-0.25496283 -0.25883722 -0.27727175 -0.13156323 -0.25500113 0.037959456 -0.2115515 -0.2905762
-0.20976083 0.06654466 -0.07813178 -0.054724593 -0.07111461 -0.2820568 -0.24595882 -0.12594345
-0.13338651 0.1635972 -0.1932146 0.029683279 -0.17185481 -0.22367974 -0.24681853 -0.03793606
-0.13257287 -0.20198503 -0.23122838 -0.36913216 0.0022793508 -0.36621907 -0.1534978 -0.33105245
-0.2139055 -0.23732464 -0.16046958 -0.05297524 -0.11824159 -0.20162988 -0.2704308 -0.22971925
0.313761 -0.2519904 -0.2354287 -0.16286528 -0.41609567 -0.12593494 0.002904088 -0.2218351
-0.25948125 -0.15647322 -0.13360983 -0.17357346 -0.068688266 -0.02248592 -0.17381598 -0.21846947
-0.08282978 -0.32849506 -0.19691908 0.06267518 -0.20298222 -0.14730395 -0.31447756 -0.14721666
0.1302544 -0.21062703 -0.030422239 -0.1770959 -0.19267505 -0.41995594 -0.18485372 -0.014528517
